…
I0831 03:00:31.820785 35740 net.cpp:339] The NetState phase (0) differed from the phase (1) specified by a rule in layer mnist
I0831 03:00:31.820816 35740 net.cpp:339] The NetState phase (0) differed from the phase (1) specified by a rule in layer accuracy
I0831 03:00:31.820902 35740 net.cpp:50] Initializing net from parameters: 
name: "MLP"
state {
  phase: TRAIN
}
layer {
  name: "mnist"
  type: "Data"
  top: "data"
  top: "label"
  include {
    phase: TRAIN
  }
  transform_param {
    scale: 0.00390625
  }
  data_param {
    source: "../mnist_train_lmdb"
    batch_size: 64
    backend: LMDB
  }
}
layer {
  name: "ip1"
  type: "InnerProduct"
  bottom: "data"
  top: "ip1"
  param {
    lr_mult: 1
  }
  param {
    lr_mult: 2
  }
  inner_product_param {
    num_output: 100
    weight_filler {
      type: "xavier"
    }
    bias_filler {
      type: "constant"
    }
  }
}
layer {
  name: "Sigmoid1"
  type: "Sigmoid"
  bottom: "ip1"
  top: "ip1"
}
layer {
  name: "ip2"
  type: "InnerProduct"
  bottom: "ip1"
  top: "ip2"
  param {
    lr_mult: 1
  }
  param {
    lr_mult: 2
  }
  inner_product_param {
    num_output: 100
    weight_filler {
      type: "xavier"
    }
    bias_filler {
      type: "constant"
    }
  }
}
layer {
  name: "Sigmoid2"
  type: "Sigmoid"
  bottom: "ip2"
  top: "ip2"
}
layer {
  name: "ip3"
  type: "InnerProduct"
  bottom: "ip2"
  top: "ip3"
  param {
    lr_mult: 1
  }
  param {
    lr_mult: 2
  }
  inner_product_param {
    num_output: 100
    weight_filler {
      type: "xavier"
    }
    bias_filler {
      type: "constant"
    }
  }
}
layer {
  name: "Sigmoid3"
  type: "Sigmoid"
  bottom: "ip3"
  top: "ip3"
}
layer {
  name: "ip4"
  type: "InnerProduct"
  bottom: "ip3"
  top: "ip4"
  param {
    lr_mult: 1
  }
  param {
    lr_mult: 2
  }
  inner_product_param {
    num_output: 10
    weight_filler {
      type: "xavier"
    }
    bias_filler {
      type: "constant"
    }
  }
}
layer {
  name: "loss"
  type: "SoftmaxWithLoss"
  bottom: "ip4"
  bottom: "label"
  top: "loss"
}
I0831 03:00:31.820987 35740 layer_factory.hpp:76] Creating layer mnist
I0831 03:00:31.821171 35740 net.cpp:110] Creating Layer mnist
I0831 03:00:31.821182 35740 net.cpp:432] mnist -> data
I0831 03:00:31.821221 35740 net.cpp:432] mnist -> label
I0831 03:00:31.834609 35743 db_lmdb.cpp:23] Opened lmdb ../mnist_train_lmdb
I0831 03:00:31.834918 35740 data_layer.cpp:45] output data size: 64,1,28,28
I0831 03:00:31.845316 35740 net.cpp:155] Setting up mnist
I0831 03:00:31.845369 35740 net.cpp:163] Top shape: 64 1 28 28 (50176)
I0831 03:00:31.845376 35740 net.cpp:163] Top shape: 64 (64)
I0831 03:00:31.845386 35740 layer_factory.hpp:76] Creating layer ip1
I0831 03:00:31.845419 35740 net.cpp:110] Creating Layer ip1
I0831 03:00:31.845429 35740 net.cpp:476] ip1 <- data
I0831 03:00:31.845441 35740 net.cpp:432] ip1 -> ip1
I0831 03:00:31.846645 35740 net.cpp:155] Setting up ip1
I0831 03:00:31.846678 35740 net.cpp:163] Top shape: 64 100 (6400)
I0831 03:00:31.846698 35740 layer_factory.hpp:76] Creating layer Sigmoid1
I0831 03:00:31.846716 35740 net.cpp:110] Creating Layer Sigmoid1
I0831 03:00:31.846720 35740 net.cpp:476] Sigmoid1 <- ip1
I0831 03:00:31.846726 35740 net.cpp:419] Sigmoid1 -> ip1 (in-place)
I0831 03:00:31.846740 35740 net.cpp:155] Setting up Sigmoid1
I0831 03:00:31.846750 35740 net.cpp:163] Top shape: 64 100 (6400)
I0831 03:00:31.846755 35740 layer_factory.hpp:76] Creating layer ip2
I0831 03:00:31.846766 35740 net.cpp:110] Creating Layer ip2
I0831 03:00:31.846779 35740 net.cpp:476] ip2 <- ip1
I0831 03:00:31.846786 35740 net.cpp:432] ip2 -> ip2
I0831 03:00:31.847743 35740 net.cpp:155] Setting up ip2
I0831 03:00:31.847755 35740 net.cpp:163] Top shape: 64 100 (6400)
I0831 03:00:31.847839 35740 layer_factory.hpp:76] Creating layer Sigmoid2
I0831 03:00:31.847853 35740 net.cpp:110] Creating Layer Sigmoid2
I0831 03:00:31.847862 35740 net.cpp:476] Sigmoid2 <- ip2
I0831 03:00:31.847875 35740 net.cpp:419] Sigmoid2 -> ip2 (in-place)
I0831 03:00:31.847887 35740 net.cpp:155] Setting up Sigmoid2
I0831 03:00:31.847892 35740 net.cpp:163] Top shape: 64 100 (6400)
I0831 03:00:31.847896 35740 layer_factory.hpp:76] Creating layer ip3
I0831 03:00:31.847903 35740 net.cpp:110] Creating Layer ip3
I0831 03:00:31.847908 35740 net.cpp:476] ip3 <- ip2
I0831 03:00:31.847914 35740 net.cpp:432] ip3 -> ip3
I0831 03:00:31.848050 35740 net.cpp:155] Setting up ip3
I0831 03:00:31.848062 35740 net.cpp:163] Top shape: 64 100 (6400)
I0831 03:00:31.848070 35740 layer_factory.hpp:76] Creating layer Sigmoid3
I0831 03:00:31.848076 35740 net.cpp:110] Creating Layer Sigmoid3
I0831 03:00:31.848080 35740 net.cpp:476] Sigmoid3 <- ip3
I0831 03:00:31.848085 35740 net.cpp:419] Sigmoid3 -> ip3 (in-place)
I0831 03:00:31.848093 35740 net.cpp:155] Setting up Sigmoid3
I0831 03:00:31.848098 35740 net.cpp:163] Top shape: 64 100 (6400)
I0831 03:00:31.848100 35740 layer_factory.hpp:76] Creating layer ip4
I0831 03:00:31.848106 35740 net.cpp:110] Creating Layer ip4
I0831 03:00:31.848110 35740 net.cpp:476] ip4 <- ip3
I0831 03:00:31.848116 35740 net.cpp:432] ip4 -> ip4
I0831 03:00:31.848816 35740 net.cpp:155] Setting up ip4
I0831 03:00:31.848829 35740 net.cpp:163] Top shape: 64 10 (640)
I0831 03:00:31.848837 35740 layer_factory.hpp:76] Creating layer loss
I0831 03:00:31.848865 35740 net.cpp:110] Creating Layer loss
I0831 03:00:31.848871 35740 net.cpp:476] loss <- ip4
I0831 03:00:31.848877 35740 net.cpp:476] loss <- label
I0831 03:00:31.848889 35740 net.cpp:432] loss -> loss
I0831 03:00:31.848909 35740 layer_factory.hpp:76] Creating layer loss
I0831 03:00:31.848973 35740 net.cpp:155] Setting up loss
…
I0831 03:00:31.849385 35740 solver.cpp:186] Creating test net (#0) specified by net file: ./MLP.prototxt
I0831 03:00:31.849431 35740 net.cpp:339] The NetState phase (1) differed from the phase (0) specified by a rule in layer mnist
I0831 03:00:31.849530 35740 net.cpp:50] Initializing net from parameters: 
name: "MLP"
state {
  phase: TEST
}
layer {
  name: "mnist"
  type: "Data"
  top: "data"
  top: "label"
  include {
    phase: TEST
  }
  transform_param {
    scale: 0.00390625
  }
  data_param {
    source: "../mnist_test_lmdb"
    batch_size: 100
    backend: LMDB
  }
}
layer {
  name: "ip1"
  type: "InnerProduct"
  bottom: "data"
  top: "ip1"
  param {
    lr_mult: 1
  }
  param {
    lr_mult: 2
  }
  inner_product_param {
    num_output: 100
    weight_filler {
      type: "xavier"
    }
    bias_filler {
      type: "constant"
    }
  }
}
layer {
  name: "Sigmoid1"
  type: "Sigmoid"
  bottom: "ip1"
  top: "ip1"
}
layer {
  name: "ip2"
  type: "InnerProduct"
  bottom: "ip1"
  top: "ip2"
  param {
    lr_mult: 1
  }
  param {
    lr_mult: 2
  }
  inner_product_param {
    num_output: 100
    weight_filler {
      type: "xavier"
    }
    bias_filler {
      type: "constant"
    }
  }
}
layer {
  name: "Sigmoid2"
  type: "Sigmoid"
  bottom: "ip2"
  top: "ip2"
}
layer {
  name: "ip3"
  type: "InnerProduct"
  bottom: "ip2"
  top: "ip3"
  param {
    lr_mult: 1
  }
  param {
    lr_mult: 2
  }
  inner_product_param {
    num_output: 100
    weight_filler {
      type: "xavier"
    }
    bias_filler {
      type: "constant"
    }
  }
}
layer {
  name: "Sigmoid3"
  type: "Sigmoid"
  bottom: "ip3"
  top: "ip3"
}
layer {
  name: "ip4"
  type: "InnerProduct"
  bottom: "ip3"
  top: "ip4"
  param {
    lr_mult: 1
  }
  param {
    lr_mult: 2
  }
  inner_product_param {
    num_output: 10
    weight_filler {
      type: "xavier"
    }
    bias_filler {
      type: "constant"
    }
  }
}
layer {
  name: "accuracy"
  type: "Accuracy"
  bottom: "ip4"
  bottom: "label"
  top: "accuracy"
  include {
    phase: TEST
  }
}
layer {
  name: "loss"
  type: "SoftmaxWithLoss"
  bottom: "ip4"
  bottom: "label"
  top: "loss"
}
I0831 03:00:31.849632 35740 layer_factory.hpp:76] Creating layer mnist
I0831 03:00:31.849747 35740 net.cpp:110] Creating Layer mnist
I0831 03:00:31.849757 35740 net.cpp:432] mnist -> data
I0831 03:00:31.849767 35740 net.cpp:432] mnist -> label
I0831 03:00:31.857435 35745 db_lmdb.cpp:23] Opened lmdb ../mnist_test_lmdb
I0831 03:00:31.857666 35740 data_layer.cpp:45] output data size: 100,1,28,28
I0831 03:00:31.858877 35740 net.cpp:155] Setting up mnist
I0831 03:00:31.858891 35740 net.cpp:163] Top shape: 100 1 28 28 (78400)
I0831 03:00:31.858908 35740 net.cpp:163] Top shape: 100 (100)
I0831 03:00:31.858912 35740 layer_factory.hpp:76] Creating layer label_mnist_1_split
I0831 03:00:31.858921 35740 net.cpp:110] Creating Layer label_mnist_1_split
I0831 03:00:31.858925 35740 net.cpp:476] label_mnist_1_split <- label
I0831 03:00:31.858930 35740 net.cpp:432] label_mnist_1_split -> label_mnist_1_split_0
I0831 03:00:31.858942 35740 net.cpp:432] label_mnist_1_split -> label_mnist_1_split_1
I0831 03:00:31.858968 35740 net.cpp:155] Setting up label_mnist_1_split
I0831 03:00:31.858974 35740 net.cpp:163] Top shape: 100 (100)
I0831 03:00:31.858978 35740 net.cpp:163] Top shape: 100 (100)
I0831 03:00:31.858983 35740 layer_factory.hpp:76] Creating layer ip1
I0831 03:00:31.858989 35740 net.cpp:110] Creating Layer ip1
I0831 03:00:31.858994 35740 net.cpp:476] ip1 <- data
I0831 03:00:31.859001 35740 net.cpp:432] ip1 -> ip1
I0831 03:00:31.859622 35740 net.cpp:155] Setting up ip1
I0831 03:00:31.859634 35740 net.cpp:163] Top shape: 100 100 (10000)
I0831 03:00:31.859668 35740 layer_factory.hpp:76] Creating layer Sigmoid1
I0831 03:00:31.859674 35740 net.cpp:110] Creating Layer Sigmoid1
I0831 03:00:31.859678 35740 net.cpp:476] Sigmoid1 <- ip1
I0831 03:00:31.859683 35740 net.cpp:419] Sigmoid1 -> ip1 (in-place)
I0831 03:00:31.859689 35740 net.cpp:155] Setting up Sigmoid1
I0831 03:00:31.859694 35740 net.cpp:163] Top shape: 100 100 (10000)
I0831 03:00:31.859699 35740 layer_factory.hpp:76] Creating layer ip2
I0831 03:00:31.859704 35740 net.cpp:110] Creating Layer ip2
I0831 03:00:31.859707 35740 net.cpp:476] ip2 <- ip1
I0831 03:00:31.859743 35740 net.cpp:432] ip2 -> ip2
I0831 03:00:31.859973 35740 net.cpp:155] Setting up ip2
I0831 03:00:31.859987 35740 net.cpp:163] Top shape: 100 100 (10000)
I0831 03:00:31.859997 35740 layer_factory.hpp:76] Creating layer Sigmoid2
I0831 03:00:31.860005 35740 net.cpp:110] Creating Layer Sigmoid2
I0831 03:00:31.860010 35740 net.cpp:476] Sigmoid2 <- ip2
I0831 03:00:31.860018 35740 net.cpp:419] Sigmoid2 -> ip2 (in-place)
I0831 03:00:31.860024 35740 net.cpp:155] Setting up Sigmoid2
I0831 03:00:31.860029 35740 net.cpp:163] Top shape: 100 100 (10000)
I0831 03:00:31.860033 35740 layer_factory.hpp:76] Creating layer ip3
I0831 03:00:31.860039 35740 net.cpp:110] Creating Layer ip3
I0831 03:00:31.860044 35740 net.cpp:476] ip3 <- ip2
I0831 03:00:31.860059 35740 net.cpp:432] ip3 -> ip3
I0831 03:00:31.860180 35740 net.cpp:155] Setting up ip3
I0831 03:00:31.860191 35740 net.cpp:163] Top shape: 100 100 (10000)
I0831 03:00:31.860200 35740 layer_factory.hpp:76] Creating layer Sigmoid3
I0831 03:00:31.860226 35740 net.cpp:110] Creating Layer Sigmoid3
I0831 03:00:31.860232 35740 net.cpp:476] Sigmoid3 <- ip3
I0831 03:00:31.860239 35740 net.cpp:419] Sigmoid3 -> ip3 (in-place)
I0831 03:00:31.860246 35740 net.cpp:155] Setting up Sigmoid3
I0831 03:00:31.860251 35740 net.cpp:163] Top shape: 100 100 (10000)
I0831 03:00:31.860256 35740 layer_factory.hpp:76] Creating layer ip4
I0831 03:00:31.860266 35740 net.cpp:110] Creating Layer ip4
I0831 03:00:31.860271 35740 net.cpp:476] ip4 <- ip3
I0831 03:00:31.860276 35740 net.cpp:432] ip4 -> ip4
I0831 03:00:31.860338 35740 net.cpp:155] Setting up ip4
I0831 03:00:31.860347 35740 net.cpp:163] Top shape: 100 10 (1000)
I0831 03:00:31.860355 35740 layer_factory.hpp:76] Creating layer ip4_ip4_0_split
I0831 03:00:31.860360 35740 net.cpp:110] Creating Layer ip4_ip4_0_split
I0831 03:00:31.860365 35740 net.cpp:476] ip4_ip4_0_split <- ip4
I0831 03:00:31.860371 35740 net.cpp:432] ip4_ip4_0_split -> ip4_ip4_0_split_0
I0831 03:00:31.860379 35740 net.cpp:432] ip4_ip4_0_split -> ip4_ip4_0_split_1
I0831 03:00:31.860388 35740 net.cpp:155] Setting up ip4_ip4_0_split
I0831 03:00:31.860394 35740 net.cpp:163] Top shape: 100 10 (1000)
I0831 03:00:31.860397 35740 net.cpp:163] Top shape: 100 10 (1000)
I0831 03:00:31.860401 35740 layer_factory.hpp:76] Creating layer accuracy
I0831 03:00:31.860410 35740 net.cpp:110] Creating Layer accuracy
I0831 03:00:31.860415 35740 net.cpp:476] accuracy <- ip4_ip4_0_split_0
I0831 03:00:31.860420 35740 net.cpp:476] accuracy <- label_mnist_1_split_0
I0831 03:00:31.860426 35740 net.cpp:432] accuracy -> accuracy
I0831 03:00:31.860435 35740 net.cpp:155] Setting up accuracy
…
