…
I0831 03:02:17.503710 35748 net.cpp:339] The NetState phase (0) differed from the phase (1) specified by a rule in layer mnist
I0831 03:02:17.503733 35748 net.cpp:339] The NetState phase (0) differed from the phase (1) specified by a rule in layer accuracy
I0831 03:02:17.503836 35748 net.cpp:50] Initializing net from parameters: 
name: "MLP"
state {
  phase: TRAIN
}
layer {
  name: "mnist"
  type: "Data"
  top: "data"
  top: "label"
  include {
    phase: TRAIN
  }
  transform_param {
    scale: 0.00390625
  }
  data_param {
    source: "../mnist_train_lmdb"
    batch_size: 64
    backend: LMDB
  }
}
layer {
  name: "ip1"
  type: "InnerProduct"
  bottom: "data"
  top: "ip1"
  param {
    lr_mult: 1
  }
  param {
    lr_mult: 2
  }
  inner_product_param {
    num_output: 100
    weight_filler {
      type: "xavier"
    }
    bias_filler {
      type: "constant"
    }
  }
}
layer {
  name: "BN1"
  type: "BatchNorm"
  bottom: "ip1"
  top: "ip1"
  batch_norm_param {
    use_global_stats: false
  }
}
layer {
  name: "scale_ip1"
  type: "Scale"
  bottom: "ip1"
  top: "ip1"
  scale_param {
    bias_term: true
  }
}
layer {
  name: "Sigmoid1"
  type: "Sigmoid"
  bottom: "ip1"
  top: "ip1"
}
layer {
  name: "ip2"
  type: "InnerProduct"
  bottom: "ip1"
  top: "ip2"
  param {
    lr_mult: 1
  }
  param {
    lr_mult: 2
  }
  inner_product_param {
    num_output: 100
    weight_filler {
      type: "xavier"
    }
    bias_filler {
      type: "constant"
    }
  }
}
layer {
  name: "BN2"
  type: "BatchNorm"
  bottom: "ip2"
  top: "ip2"
  batch_norm_param {
    use_global_stats: false
  }
}
layer {
  name: "scale_ip2"
  type: "Scale"
  bottom: "ip2"
  top: "ip2"
  scale_param {
    bias_term: true
  }
}
layer {
  name: "Sigmoid2"
  type: "Sigmoid"
  bottom: "ip2"
  top: "ip2"
}
layer {
  name: "ip3"
  type: "InnerProduct"
  bottom: "ip2"
  top: "ip3"
  param {
    lr_mult: 1
  }
  param {
    lr_mult: 2
  }
  inner_product_param {
    num_output: 100
    weight_filler {
      type: "xavier"
    }
    bias_filler {
      type: "constant"
    }
  }
}
layer {
  name: "BN3"
  type: "BatchNorm"
  bottom: "ip3"
  top: "ip3"
  batch_norm_param {
    use_global_stats: false
  }
}
layer {
  name: "scale_ip3"
  type: "Scale"
  bottom: "ip3"
  top: "ip3"
  scale_param {
    bias_term: true
  }
}
layer {
  name: "Sigmoid3"
  type: "Sigmoid"
  bottom: "ip3"
  top: "ip3"
}
layer {
  name: "ip4"
  type: "InnerProduct"
  bottom: "ip3"
  top: "ip4"
  param {
    lr_mult: 1
  }
  param {
    lr_mult: 2
  }
  inner_product_param {
    num_output: 10
    weight_filler {
      type: "xavier"
    }
    bias_filler {
      type: "constant"
    }
  }
}
layer {
  name: "loss"
  type: "SoftmaxWithLoss"
  bottom: "ip4"
  bottom: "label"
  top: "loss"
}
I0831 03:02:17.503916 35748 layer_factory.hpp:76] Creating layer mnist
I0831 03:02:17.504067 35748 net.cpp:110] Creating Layer mnist
I0831 03:02:17.504078 35748 net.cpp:432] mnist -> data
I0831 03:02:17.504104 35748 net.cpp:432] mnist -> label
I0831 03:02:17.508687 35751 db_lmdb.cpp:23] Opened lmdb ../mnist_train_lmdb
I0831 03:02:17.509001 35748 data_layer.cpp:45] output data size: 64,1,28,28
I0831 03:02:17.518406 35748 net.cpp:155] Setting up mnist
I0831 03:02:17.518429 35748 net.cpp:163] Top shape: 64 1 28 28 (50176)
I0831 03:02:17.518435 35748 net.cpp:163] Top shape: 64 (64)
I0831 03:02:17.518441 35748 layer_factory.hpp:76] Creating layer ip1
I0831 03:02:17.518466 35748 net.cpp:110] Creating Layer ip1
I0831 03:02:17.518472 35748 net.cpp:476] ip1 <- data
I0831 03:02:17.518483 35748 net.cpp:432] ip1 -> ip1
I0831 03:02:17.519599 35748 net.cpp:155] Setting up ip1
I0831 03:02:17.519613 35748 net.cpp:163] Top shape: 64 100 (6400)
I0831 03:02:17.519692 35748 layer_factory.hpp:76] Creating layer BN1
I0831 03:02:17.519711 35748 net.cpp:110] Creating Layer BN1
I0831 03:02:17.519717 35748 net.cpp:476] BN1 <- ip1
I0831 03:02:17.519724 35748 net.cpp:419] BN1 -> ip1 (in-place)
I0831 03:02:17.519976 35748 net.cpp:155] Setting up BN1
I0831 03:02:17.519987 35748 net.cpp:163] Top shape: 64 100 (6400)
I0831 03:02:17.520002 35748 layer_factory.hpp:76] Creating layer scale_ip1
I0831 03:02:17.520010 35748 net.cpp:110] Creating Layer scale_ip1
I0831 03:02:17.520015 35748 net.cpp:476] scale_ip1 <- ip1
I0831 03:02:17.520022 35748 net.cpp:419] scale_ip1 -> ip1 (in-place)
I0831 03:02:17.520071 35748 layer_factory.hpp:76] Creating layer scale_ip1
I0831 03:02:17.520129 35748 net.cpp:155] Setting up scale_ip1
I0831 03:02:17.520139 35748 net.cpp:163] Top shape: 64 100 (6400)
I0831 03:02:17.520148 35748 layer_factory.hpp:76] Creating layer Sigmoid1
I0831 03:02:17.520154 35748 net.cpp:110] Creating Layer Sigmoid1
I0831 03:02:17.520159 35748 net.cpp:476] Sigmoid1 <- ip1
I0831 03:02:17.520165 35748 net.cpp:419] Sigmoid1 -> ip1 (in-place)
I0831 03:02:17.520179 35748 net.cpp:155] Setting up Sigmoid1
I0831 03:02:17.520185 35748 net.cpp:163] Top shape: 64 100 (6400)
I0831 03:02:17.520190 35748 layer_factory.hpp:76] Creating layer ip2
I0831 03:02:17.520196 35748 net.cpp:110] Creating Layer ip2
I0831 03:02:17.520200 35748 net.cpp:476] ip2 <- ip1
I0831 03:02:17.520205 35748 net.cpp:432] ip2 -> ip2
I0831 03:02:17.520872 35748 net.cpp:155] Setting up ip2
I0831 03:02:17.520885 35748 net.cpp:163] Top shape: 64 100 (6400)
I0831 03:02:17.520898 35748 layer_factory.hpp:76] Creating layer BN2
I0831 03:02:17.520906 35748 net.cpp:110] Creating Layer BN2
I0831 03:02:17.520911 35748 net.cpp:476] BN2 <- ip2
I0831 03:02:17.520918 35748 net.cpp:419] BN2 -> ip2 (in-place)
I0831 03:02:17.520980 35748 net.cpp:155] Setting up BN2
I0831 03:02:17.520990 35748 net.cpp:163] Top shape: 64 100 (6400)
I0831 03:02:17.521001 35748 layer_factory.hpp:76] Creating layer scale_ip2
I0831 03:02:17.521009 35748 net.cpp:110] Creating Layer scale_ip2
I0831 03:02:17.521013 35748 net.cpp:476] scale_ip2 <- ip2
I0831 03:02:17.521020 35748 net.cpp:419] scale_ip2 -> ip2 (in-place)
I0831 03:02:17.521044 35748 layer_factory.hpp:76] Creating layer scale_ip2
I0831 03:02:17.521091 35748 net.cpp:155] Setting up scale_ip2
I0831 03:02:17.521100 35748 net.cpp:163] Top shape: 64 100 (6400)
I0831 03:02:17.521107 35748 layer_factory.hpp:76] Creating layer Sigmoid2
I0831 03:02:17.521114 35748 net.cpp:110] Creating Layer Sigmoid2
I0831 03:02:17.521117 35748 net.cpp:476] Sigmoid2 <- ip2
I0831 03:02:17.521126 35748 net.cpp:419] Sigmoid2 -> ip2 (in-place)
I0831 03:02:17.521131 35748 net.cpp:155] Setting up Sigmoid2
I0831 03:02:17.521138 35748 net.cpp:163] Top shape: 64 100 (6400)
I0831 03:02:17.521142 35748 layer_factory.hpp:76] Creating layer ip3
I0831 03:02:17.521149 35748 net.cpp:110] Creating Layer ip3
I0831 03:02:17.521153 35748 net.cpp:476] ip3 <- ip2
I0831 03:02:17.521158 35748 net.cpp:432] ip3 -> ip3
I0831 03:02:17.521327 35748 net.cpp:155] Setting up ip3
I0831 03:02:17.521337 35748 net.cpp:163] Top shape: 64 100 (6400)
I0831 03:02:17.521344 35748 layer_factory.hpp:76] Creating layer BN3
I0831 03:02:17.521353 35748 net.cpp:110] Creating Layer BN3
I0831 03:02:17.521358 35748 net.cpp:476] BN3 <- ip3
I0831 03:02:17.521366 35748 net.cpp:419] BN3 -> ip3 (in-place)
I0831 03:02:17.521425 35748 net.cpp:155] Setting up BN3
I0831 03:02:17.521433 35748 net.cpp:163] Top shape: 64 100 (6400)
I0831 03:02:17.521446 35748 layer_factory.hpp:76] Creating layer scale_ip3
I0831 03:02:17.521456 35748 net.cpp:110] Creating Layer scale_ip3
I0831 03:02:17.521461 35748 net.cpp:476] scale_ip3 <- ip3
I0831 03:02:17.521466 35748 net.cpp:419] scale_ip3 -> ip3 (in-place)
I0831 03:02:17.521488 35748 layer_factory.hpp:76] Creating layer scale_ip3
I0831 03:02:17.521538 35748 net.cpp:155] Setting up scale_ip3
I0831 03:02:17.521548 35748 net.cpp:163] Top shape: 64 100 (6400)
I0831 03:02:17.521554 35748 layer_factory.hpp:76] Creating layer Sigmoid3
I0831 03:02:17.521579 35748 net.cpp:110] Creating Layer Sigmoid3
I0831 03:02:17.521582 35748 net.cpp:476] Sigmoid3 <- ip3
I0831 03:02:17.521590 35748 net.cpp:419] Sigmoid3 -> ip3 (in-place)
I0831 03:02:17.521597 35748 net.cpp:155] Setting up Sigmoid3
I0831 03:02:17.521603 35748 net.cpp:163] Top shape: 64 100 (6400)
I0831 03:02:17.521606 35748 layer_factory.hpp:76] Creating layer ip4
I0831 03:02:17.521613 35748 net.cpp:110] Creating Layer ip4
I0831 03:02:17.521616 35748 net.cpp:476] ip4 <- ip3
I0831 03:02:17.521622 35748 net.cpp:432] ip4 -> ip4
I0831 03:02:17.522189 35748 net.cpp:155] Setting up ip4
I0831 03:02:17.522203 35748 net.cpp:163] Top shape: 64 10 (640)
I0831 03:02:17.522210 35748 layer_factory.hpp:76] Creating layer loss
I0831 03:02:17.522225 35748 net.cpp:110] Creating Layer loss
I0831 03:02:17.522231 35748 net.cpp:476] loss <- ip4
I0831 03:02:17.522236 35748 net.cpp:476] loss <- label
I0831 03:02:17.522243 35748 net.cpp:432] loss -> loss
I0831 03:02:17.522254 35748 layer_factory.hpp:76] Creating layer loss
I0831 03:02:17.522313 35748 net.cpp:155] Setting up loss
…
I0831 03:02:17.522748 35748 solver.cpp:186] Creating test net (#0) specified by net file: ./MLP_BN.prototxt
I0831 03:02:17.522783 35748 net.cpp:339] The NetState phase (1) differed from the phase (0) specified by a rule in layer mnist
I0831 03:02:17.522888 35748 net.cpp:50] Initializing net from parameters: 
name: "MLP"
state {
  phase: TEST
}
layer {
  name: "mnist"
  type: "Data"
  top: "data"
  top: "label"
  include {
    phase: TEST
  }
  transform_param {
    scale: 0.00390625
  }
  data_param {
    source: "../mnist_test_lmdb"
    batch_size: 100
    backend: LMDB
  }
}
layer {
  name: "ip1"
  type: "InnerProduct"
  bottom: "data"
  top: "ip1"
  param {
    lr_mult: 1
  }
  param {
    lr_mult: 2
  }
  inner_product_param {
    num_output: 100
    weight_filler {
      type: "xavier"
    }
    bias_filler {
      type: "constant"
    }
  }
}
layer {
  name: "BN1"
  type: "BatchNorm"
  bottom: "ip1"
  top: "ip1"
  batch_norm_param {
    use_global_stats: false
  }
}
layer {
  name: "scale_ip1"
  type: "Scale"
  bottom: "ip1"
  top: "ip1"
  scale_param {
    bias_term: true
  }
}
layer {
  name: "Sigmoid1"
  type: "Sigmoid"
  bottom: "ip1"
  top: "ip1"
}
layer {
  name: "ip2"
  type: "InnerProduct"
  bottom: "ip1"
  top: "ip2"
  param {
    lr_mult: 1
  }
  param {
    lr_mult: 2
  }
  inner_product_param {
    num_output: 100
    weight_filler {
      type: "xavier"
    }
    bias_filler {
      type: "constant"
    }
  }
}
layer {
  name: "BN2"
  type: "BatchNorm"
  bottom: "ip2"
  top: "ip2"
  batch_norm_param {
    use_global_stats: false
  }
}
layer {
  name: "scale_ip2"
  type: "Scale"
  bottom: "ip2"
  top: "ip2"
  scale_param {
    bias_term: true
  }
}
layer {
  name: "Sigmoid2"
  type: "Sigmoid"
  bottom: "ip2"
  top: "ip2"
}
layer {
  name: "ip3"
  type: "InnerProduct"
  bottom: "ip2"
  top: "ip3"
  param {
    lr_mult: 1
  }
  param {
    lr_mult: 2
  }
  inner_product_param {
    num_output: 100
    weight_filler {
      type: "xavier"
    }
    bias_filler {
      type: "constant"
    }
  }
}
layer {
  name: "BN3"
  type: "BatchNorm"
  bottom: "ip3"
  top: "ip3"
  batch_norm_param {
    use_global_stats: false
  }
}
layer {
  name: "scale_ip3"
  type: "Scale"
  bottom: "ip3"
  top: "ip3"
  scale_param {
    bias_term: true
  }
}
layer {
  name: "Sigmoid3"
  type: "Sigmoid"
  bottom: "ip3"
  top: "ip3"
}
layer {
  name: "ip4"
  type: "InnerProduct"
  bottom: "ip3"
  top: "ip4"
  param {
    lr_mult: 1
  }
  param {
    lr_mult: 2
  }
  inner_product_param {
    num_output: 10
    weight_filler {
      type: "xavier"
    }
    bias_filler {
      type: "constant"
    }
  }
}
layer {
  name: "accuracy"
  type: "Accuracy"
  bottom: "ip4"
  bottom: "label"
  top: "accuracy"
  include {
    phase: TEST
  }
}
layer {
  name: "loss"
  type: "SoftmaxWithLoss"
  bottom: "ip4"
  bottom: "label"
  top: "loss"
}
I0831 03:02:17.522990 35748 layer_factory.hpp:76] Creating layer mnist
I0831 03:02:17.523087 35748 net.cpp:110] Creating Layer mnist
I0831 03:02:17.523100 35748 net.cpp:432] mnist -> data
I0831 03:02:17.523109 35748 net.cpp:432] mnist -> label
I0831 03:02:17.527230 35753 db_lmdb.cpp:23] Opened lmdb ../mnist_test_lmdb
I0831 03:02:17.527487 35748 data_layer.cpp:45] output data size: 100,1,28,28
I0831 03:02:17.528611 35748 net.cpp:155] Setting up mnist
I0831 03:02:17.528625 35748 net.cpp:163] Top shape: 100 1 28 28 (78400)
I0831 03:02:17.528630 35748 net.cpp:163] Top shape: 100 (100)
I0831 03:02:17.528635 35748 layer_factory.hpp:76] Creating layer label_mnist_1_split
I0831 03:02:17.528641 35748 net.cpp:110] Creating Layer label_mnist_1_split
I0831 03:02:17.528645 35748 net.cpp:476] label_mnist_1_split <- label
I0831 03:02:17.528650 35748 net.cpp:432] label_mnist_1_split -> label_mnist_1_split_0
I0831 03:02:17.528659 35748 net.cpp:432] label_mnist_1_split -> label_mnist_1_split_1
I0831 03:02:17.528687 35748 net.cpp:155] Setting up label_mnist_1_split
I0831 03:02:17.528692 35748 net.cpp:163] Top shape: 100 (100)
I0831 03:02:17.528697 35748 net.cpp:163] Top shape: 100 (100)
I0831 03:02:17.528699 35748 layer_factory.hpp:76] Creating layer ip1
I0831 03:02:17.528707 35748 net.cpp:110] Creating Layer ip1
I0831 03:02:17.528710 35748 net.cpp:476] ip1 <- data
I0831 03:02:17.528717 35748 net.cpp:432] ip1 -> ip1
I0831 03:02:17.529325 35748 net.cpp:155] Setting up ip1
I0831 03:02:17.529335 35748 net.cpp:163] Top shape: 100 100 (10000)
I0831 03:02:17.529358 35748 layer_factory.hpp:76] Creating layer BN1
I0831 03:02:17.529364 35748 net.cpp:110] Creating Layer BN1
I0831 03:02:17.529368 35748 net.cpp:476] BN1 <- ip1
I0831 03:02:17.529376 35748 net.cpp:419] BN1 -> ip1 (in-place)
I0831 03:02:17.529505 35748 net.cpp:155] Setting up BN1
I0831 03:02:17.529517 35748 net.cpp:163] Top shape: 100 100 (10000)
I0831 03:02:17.529530 35748 layer_factory.hpp:76] Creating layer scale_ip1
I0831 03:02:17.529541 35748 net.cpp:110] Creating Layer scale_ip1
I0831 03:02:17.529544 35748 net.cpp:476] scale_ip1 <- ip1
I0831 03:02:17.529551 35748 net.cpp:419] scale_ip1 -> ip1 (in-place)
I0831 03:02:17.529597 35748 layer_factory.hpp:76] Creating layer scale_ip1
I0831 03:02:17.529649 35748 net.cpp:155] Setting up scale_ip1
I0831 03:02:17.529659 35748 net.cpp:163] Top shape: 100 100 (10000)
I0831 03:02:17.529667 35748 layer_factory.hpp:76] Creating layer Sigmoid1
I0831 03:02:17.529672 35748 net.cpp:110] Creating Layer Sigmoid1
I0831 03:02:17.529676 35748 net.cpp:476] Sigmoid1 <- ip1
I0831 03:02:17.529681 35748 net.cpp:419] Sigmoid1 -> ip1 (in-place)
I0831 03:02:17.529687 35748 net.cpp:155] Setting up Sigmoid1
I0831 03:02:17.529692 35748 net.cpp:163] Top shape: 100 100 (10000)
I0831 03:02:17.529728 35748 layer_factory.hpp:76] Creating layer ip2
I0831 03:02:17.529737 35748 net.cpp:110] Creating Layer ip2
I0831 03:02:17.529742 35748 net.cpp:476] ip2 <- ip1
I0831 03:02:17.529750 35748 net.cpp:432] ip2 -> ip2
I0831 03:02:17.529875 35748 net.cpp:155] Setting up ip2
I0831 03:02:17.529884 35748 net.cpp:163] Top shape: 100 100 (10000)
I0831 03:02:17.529894 35748 layer_factory.hpp:76] Creating layer BN2
I0831 03:02:17.529901 35748 net.cpp:110] Creating Layer BN2
I0831 03:02:17.529906 35748 net.cpp:476] BN2 <- ip2
I0831 03:02:17.529911 35748 net.cpp:419] BN2 -> ip2 (in-place)
I0831 03:02:17.529975 35748 net.cpp:155] Setting up BN2
I0831 03:02:17.529985 35748 net.cpp:163] Top shape: 100 100 (10000)
I0831 03:02:17.529994 35748 layer_factory.hpp:76] Creating layer scale_ip2
I0831 03:02:17.530000 35748 net.cpp:110] Creating Layer scale_ip2
I0831 03:02:17.530004 35748 net.cpp:476] scale_ip2 <- ip2
I0831 03:02:17.530009 35748 net.cpp:419] scale_ip2 -> ip2 (in-place)
I0831 03:02:17.530035 35748 layer_factory.hpp:76] Creating layer scale_ip2
I0831 03:02:17.530086 35748 net.cpp:155] Setting up scale_ip2
I0831 03:02:17.530097 35748 net.cpp:163] Top shape: 100 100 (10000)
I0831 03:02:17.530104 35748 layer_factory.hpp:76] Creating layer Sigmoid2
I0831 03:02:17.530112 35748 net.cpp:110] Creating Layer Sigmoid2
I0831 03:02:17.530118 35748 net.cpp:476] Sigmoid2 <- ip2
I0831 03:02:17.530123 35748 net.cpp:419] Sigmoid2 -> ip2 (in-place)
I0831 03:02:17.530129 35748 net.cpp:155] Setting up Sigmoid2
I0831 03:02:17.530134 35748 net.cpp:163] Top shape: 100 100 (10000)
I0831 03:02:17.530138 35748 layer_factory.hpp:76] Creating layer ip3
I0831 03:02:17.530143 35748 net.cpp:110] Creating Layer ip3
I0831 03:02:17.530148 35748 net.cpp:476] ip3 <- ip2
I0831 03:02:17.530153 35748 net.cpp:432] ip3 -> ip3
I0831 03:02:17.530277 35748 net.cpp:155] Setting up ip3
I0831 03:02:17.530287 35748 net.cpp:163] Top shape: 100 100 (10000)
I0831 03:02:17.530294 35748 layer_factory.hpp:76] Creating layer BN3
I0831 03:02:17.530303 35748 net.cpp:110] Creating Layer BN3
I0831 03:02:17.530308 35748 net.cpp:476] BN3 <- ip3
I0831 03:02:17.530313 35748 net.cpp:419] BN3 -> ip3 (in-place)
I0831 03:02:17.530437 35748 net.cpp:155] Setting up BN3
I0831 03:02:17.530447 35748 net.cpp:163] Top shape: 100 100 (10000)
I0831 03:02:17.530460 35748 layer_factory.hpp:76] Creating layer scale_ip3
I0831 03:02:17.530469 35748 net.cpp:110] Creating Layer scale_ip3
I0831 03:02:17.530473 35748 net.cpp:476] scale_ip3 <- ip3
I0831 03:02:17.530478 35748 net.cpp:419] scale_ip3 -> ip3 (in-place)
I0831 03:02:17.530505 35748 layer_factory.hpp:76] Creating layer scale_ip3
I0831 03:02:17.530555 35748 net.cpp:155] Setting up scale_ip3
I0831 03:02:17.530565 35748 net.cpp:163] Top shape: 100 100 (10000)
I0831 03:02:17.530571 35748 layer_factory.hpp:76] Creating layer Sigmoid3
I0831 03:02:17.530580 35748 net.cpp:110] Creating Layer Sigmoid3
I0831 03:02:17.530583 35748 net.cpp:476] Sigmoid3 <- ip3
I0831 03:02:17.530588 35748 net.cpp:419] Sigmoid3 -> ip3 (in-place)
I0831 03:02:17.530593 35748 net.cpp:155] Setting up Sigmoid3
I0831 03:02:17.530598 35748 net.cpp:163] Top shape: 100 100 (10000)
I0831 03:02:17.530602 35748 layer_factory.hpp:76] Creating layer ip4
I0831 03:02:17.530609 35748 net.cpp:110] Creating Layer ip4
I0831 03:02:17.530613 35748 net.cpp:476] ip4 <- ip3
I0831 03:02:17.530618 35748 net.cpp:432] ip4 -> ip4
I0831 03:02:17.530673 35748 net.cpp:155] Setting up ip4
I0831 03:02:17.530683 35748 net.cpp:163] Top shape: 100 10 (1000)
I0831 03:02:17.530689 35748 layer_factory.hpp:76] Creating layer ip4_ip4_0_split
I0831 03:02:17.530695 35748 net.cpp:110] Creating Layer ip4_ip4_0_split
I0831 03:02:17.530699 35748 net.cpp:476] ip4_ip4_0_split <- ip4
I0831 03:02:17.530704 35748 net.cpp:432] ip4_ip4_0_split -> ip4_ip4_0_split_0
I0831 03:02:17.530714 35748 net.cpp:432] ip4_ip4_0_split -> ip4_ip4_0_split_1
I0831 03:02:17.530720 35748 net.cpp:155] Setting up ip4_ip4_0_split
I0831 03:02:17.530727 35748 net.cpp:163] Top shape: 100 10 (1000)
I0831 03:02:17.530731 35748 net.cpp:163] Top shape: 100 10 (1000)
I0831 03:02:17.530752 35748 layer_factory.hpp:76] Creating layer accuracy
I0831 03:02:17.530761 35748 net.cpp:110] Creating Layer accuracy
I0831 03:02:17.530764 35748 net.cpp:476] accuracy <- ip4_ip4_0_split_0
I0831 03:02:17.530769 35748 net.cpp:476] accuracy <- label_mnist_1_split_0
I0831 03:02:17.530778 35748 net.cpp:432] accuracy -> accuracy
I0831 03:02:17.530787 35748 net.cpp:155] Setting up accuracy
…
